…
  # We can also set apply_lora_to_mlp=True or apply_lora_to_output=True to apply LoRA to other linear
  # layers outside of the self-attention.
  lora_model = lora_llama2_7b(lora_attn_modules=["q_proj", "v_proj"])

.. note::

    Calling :func:`lora_llama_2_7b <torchtune.models.llama2.lora_llama2_7b>` alone will not handle the definition of which parameters are trainable.
    See :ref:`below<setting_trainable_params>` for how to do this.

Let's inspect each of these models a bit more closely.

.. code-block:: bash

  # Print the first layer's self-attention in the usual Llama2 model
  >>> print(base_model.layers[0].attn)
  CausalSelfAttention(
    (q_proj): Linear(in_features=4096, out_features=4096, bias=False)
    (k_proj): Linear(in_features=4096, out_features=4096, bias=False)
    (v_proj): Linear(in_features=4096, out_features=4096, bias=False)
    (output_proj): Linear(in_features=4096, out_features=4096, bias=False)
    (pos_embeddings): RotaryPositionalEmbeddings()
  )

  # Print the same for Llama2 with LoRA weights
  >>> print(lora_model.layers[0].attn)
  CausalSelfAttention(
    (q_proj): LoRALinear(
      (dropout): Dropout(p=0.0, inplace=False)
      (lora_a): Linear(in_features=4096, out_features=8, bias=False)
      (lora_b): Linear(in_features=8, out_features=4096, bias=False)
    )
    (k_proj): Linear(in_features=4096, out_features=4096, bias=False)
    (v_proj): LoRALinear(
      (dropout): Dropout(p=0.0, inplace=False)
      (lora_a): Linear(in_features=4096, out_features=8, bias=False)
      (lora_b): Linear(in_features=8, out_features=4096, bias=False)
    )
    (output_proj): Linear(in_features=4096, out_features=4096, bias=False)
    (pos_embeddings): RotaryPositionalEmbeddings()
  )


Notice that our LoRA model's layer contains additional weights in the Q and V projections,
as expected. Additionally, inspecting the type of :code:`lora_model` and
:code:`base_model`, would show that they are both instances of the same :class:`~torchtune.modules.TransformerDecoder`.
(Feel free to verify this for yourself.)
…
